mnist_model_fully_connected.pt (torch_old, 311619 bytes, 4 tensors)

weight f4 [64, 1176]
000000 60 7b c5 3c b8 79 b0 bb cc 16 ea bc c0 74 09 3c
       0.024106681 -0.0053856038 -0.028575324 0.008389652
000010 e4 2e dd 3c e6 aa cf 3c 04 4c eb bc ae 04 d7 3c
       0.026999898 0.025350045 -0.02872277 0.026247349
000020 54 ff 10 3c 7f f6 db bc 2e 56 e5 3c 80 b7 d3 3a
       0.0088499375 -0.026850937 0.027995195 0.001615271
000030 8a 1f 7b 3b d1 20 32 3c 1f 55 0f 3c 27 c5 8e bc
       0.003831836 0.010872082 0.008748322 -0.017427994
000040 ae c8 88 3c 5e fa a8 3c bb 48 76 bc 28 df 66 3c
       0.016697254 0.020627197 -0.015031989 0.0140912905
000050 24 e8 a9 bb 60 eb 9a bc c6 ad 37 bc 90 b9 5f bb
       -0.005185144 -0.018911064 -0.011210864 -0.0034137703
000060 e1 67 83 bc 78 47 86 3c 8e af 8c 3c 2c 6c 62 bc
       -0.016040744 0.0163915 0.017173555 -0.0138197355
000070 f6 4a 94 bc 00 60 ae 36 30 30 d1 3b 9a 19 8f 3c
       -0.01810215 5.19678e-06 0.006383918 0.017468262
000080 70 8a 7a bb 60 a0 99 bc d8 42 2f bb 0c 40 89 3c
       -0.0038229488 -0.01875323 -0.0026742723 0.016754173
000090 71 4f c3 bb d2 9c 40 3c 66 27 da bb b8 94 76 bc
       -0.005960398 0.011756139 -0.0066575287 -0.015050106
0000a0 76 23 c3 ba e4 00 c2 bc 70 ce f0 3c 63 e8 b1 bb
       -0.0014887888 -0.023682065 0.029395312 -0.005429314
0000b0 ce 6a 3b bc 71 40 5a 3b d4 9d 8a bc ef 9b b1 bc
       -0.011439038 0.003330257 -0.016920961 -0.0216808
0000c0 18 81 46 bc 2c 38 e3 bc 79 56 bd bc 17 96 c3 3c
       -0.012115739 -0.027736746 -0.023112522 0.02387528
0000d0 fc e9 6d 3c b0 94 67 3c c0 ce 40 bc 72 d0 e0 bc
       0.014521118 0.014134571 -0.011768043 -0.027443144
0000e0 aa 66 42 bc 60 1b 94 bc 00 b8 36 bc e2 dd db 3c
       -0.011865297 -0.01807946 -0.011152267 0.0268392
0000f0 03 04 b1 3c 2e 9c b5 3c 52 84 91 bc 57 cb 21 bb
       0.021608358 0.022169199 -0.01776329 -0.002468785
000100 6a d2 30 bd 27 96 30 bc 23 92 5f bc 49 44 ef bc
       -0.043169416 -0.010777987 -0.013645682 -0.029207366
000110 d6 30 a5 3c 4d 2a e8 bc 3f 07 dc bc 14 62 97 3a
       0.020164888 -0.028340483 -0.026858924 0.0011549615
000120 98 13 94 bc 22 12 c8 bb b2 37 ac 3b 15 f7 10 3c
       -0.01807575 -0.006105677 0.005255663 0.008847971
000130 2e b3 97 ba 6a 5d a6 bc b5 b1 9b bc 38 78 9f ba
       -0.0011573785 -0.020308215 -0.019005636 -0.0012166565
000140 7b d6 c5 bc fa 05 27 bd 08 ce cb 3b 88 66 fe bb
       -0.024150124 -0.040777184 0.006219629 -0.0077636875
000150 60 d2 86 3b a8 86 f0 3b f6 a5 c7 bc f8 84 ac 3c
       0.004114434 0.007340271 -0.024371129 0.021059498
000160 1d 18 de 3c 71 b8 2b bc 2a 1d 07 3c 26 68 f0 3b
       0.027111107 -0.010480986 0.008246699 0.007336634
000170 54 2e 7b bd 76 bb e5 bd 12 4c ba bd 7a 29 8b bd
       -0.06132348 -0.11217396 -0.090965405 -0.067950204
000180 87 12 f9 bd 05 b5 bc bd 37 1d db bd f7 49 4b bd
       -0.12161737 -0.09214214 -0.10698932 -0.049631085
000190 3d 9b 9a bb 99 2f 11 3d d8 78 d2 bc 86 01 5b 3d
       -0.004718213 0.035445783 -0.025692388 0.05346825
0001a0 a7 68 cc 3c ba 34 b3 bc d8 17 d5 3b 36 6e 6a bb
       0.024952246 -0.021875728 0.0065030865 -0.0035771257
0001b0 55 1d f6 bc e7 c7 01 bd c3 29 77 bc 8a d3 b4 bc
       -0.030043283 -0.031684782 -0.01508564 -0.022073526
0001c0 78 82 ee bc c2 9b a0 bc c5 9a 7f 3c f9 6b ff 3b
       -0.029114947 -0.019605521 0.015600865 0.0077948538
0001d0 2d 05 0e bc e9 69 d7 3c 80 a0 96 bb ae 04 59 bd
       -0.008668226 0.02629562 -0.00459677 -0.05298298
0001e0 8d 97 c1 bd 1a 4e c9 bd 93 48 59 bc 7a 75 b1 bd
       -0.09452734 -0.0982935 -0.013261932 -0.08664985
0001f0 15 22 45 be f9 44 d7 3c a0 c4 8d bd 86 38 6e be
       -0.19251283 0.026278006 -0.06922269 -0.2326375
000200 c5 be 18 be 7c c7 86 bd df 3a 0f bd e3 17 5f 3a
       -0.14916523 -0.065810174 -0.034968253 0.00085103343
000210 01 44 89 3d 25 eb 58 3d d2 6d 1b 3d b6 ba be bc
       0.06702424 0.052958626 0.03794653 -0.02328239
000220 f8 64 39 bd 4a be 1b bd 5b f0 e9 ba ba 4b d5 3c
       -0.045262307 -0.03802327 -0.0017848121 0.026037086
000230 1c f4 04 3c 5a 09 c4 bc c6 dc 44 3c c7 95 21 bb
       0.008114841 -0.02393024 0.012015527 -0.0024655925
000240 7d 47 a1 bc e8 a9 b1 3d 80 e3 c7 3d 92 51 f5 bc
       -0.019687409 0.08674985 0.09760189 -0.029946122
000250 3e 8c a3 bd db 34 f5 bc 48 00 4e bd e4 cf ea bb
       -0.079857334 -0.02993243 -0.050293237 -0.007165896
000260 00 46 02 be 29 ef 5f bd db 62 cc bc 7a 19 0b bd
       -0.12722015 -0.05467144 -0.024949482 -0.033959843
000270 29 51 97 bd dd 8a 5d bd 3a 38 23 bd fb 07 aa bd
       -0.07388527 -0.05408751 -0.039848544 -0.083023034
000280 51 83 87 bd e1 08 c3 bc c2 54 f5 3c be 2e 47 bb
       -0.066168435 -0.023807945 0.029947642 -0.003039285
000290 1b 39 11 3d b1 92 1a bd 66 11 c3 3c 4a bb 93 bc
       0.03545485 -0.037737552 0.023812007 -0.018033642
0002a0 31 97 e9 bc 76 a7 98 bc 00 f5 a5 3c b4 3f ad 3c
       -0.028514476 -0.01863454 0.020258427 0.02114854
0002b0 c9 75 97 bb fc 56 54 3d 77 88 60 3d 49 17 bc bc
       -0.0046221954 0.051840767 0.054817643 -0.022960322
0002c0 c4 67 bf bd 3d c0 78 3d 4a 61 af bd 69 39 91 bd
       -0.093459636 0.060730208 -0.08563478 -0.07091028
0002d0 01 17 2e bc 7a 86 c9 ba e5 0f 0d be f6 52 0e bd
       -0.010625602 -0.001537516 -0.13775595 -0.034747086
0002e0 86 6f 9b bd a6 f1 78 bd 7d 10 68 bd be 19 ce bd
       -0.07589631 -0.06077733 -0.05665635 -0.10063504
0002f0 e8 ff 1e 3d 12 d5 4c 3c 1e 3f d1 bc 68 9e 0d 3b
       0.03881827 0.012501972 -0.025542792 0.002160931
000300 c3 b5 ce 3c e8 65 3f bd 05 bb 3c bb fc bb dd 39
       0.025233155 -0.046728045 -0.0028797996 0.00042292464
000310 fd 92 70 3b d4 2c 77 bc 02 c8 90 3b 24 1c 17 3a
       0.0036708706 -0.015086371 0.004418374 0.0005764386
000320 b9 bf c6 bb 38 0a 50 bc 0d e3 48 bd 1a e0 78 bd
       -0.0060653356 -0.012697749 -0.049044657 -0.060760595
000330 4f 5e 05 be 8c 00 fb bc 80 b0 c5 bc 0a be a5 bb
       -0.13024257 -0.03063991 -0.024132013 -0.005058055
000340 db 4e 83 bd cb 16 0a be 2b b1 54 be 6b 42 bc bc
       -0.06411525 -0.13485257 -0.20770709 -0.02298089
000350 24 fd 16 be b0 a6 ee bd 80 66 18 3b 45 bc 16 be
       -0.14745003 -0.11652887 0.0023254454 -0.14720257
000360 bb 31 36 3d 7a 68 6b 3c 04 f9 f7 bd 1e 36 34 bc
       0.04448102 0.014368171 -0.12108043 -0.010999231
000370 e0 f2 bd 3b fb d3 15 3d 26 07 96 ba 24 26 71 bc
       0.005796775 0.036579113 -0.0011446222 -0.014718566
000380 7d 5a 48 bc 4d 24 6b bc 94 8a 85 38 a3 6f 76 3c
       -0.012228605 -0.0143519165 6.3677464e-05 0.015041265
000390 5e 90 e9 3d a9 80 b9 3d b3 67 85 3c 44 8e 8f 3d
       0.11404489 0.09057743 0.0162848 0.07009557
0003a0 53 48 61 bd 27 68 a8 bb a5 da 12 be 01 57 80 bd
       -0.055000614 -0.005139369 -0.14341219 -0.06266595
0003b0 00 8b 7c 3c 4f f2 2f 3e 33 e6 d4 bd 9a 4d 9d bd
       0.015414 0.17182277 -0.103954695 -0.07680817
0003c0 29 44 28 be 08 ce 8a 3b e5 62 86 3d ed 46 ec bd
       -0.16432251 0.0042359866 0.065618314 -0.115369655
0003d0 bd 94 07 be 34 fb 14 bd b9 0f f4 bd 27 24 08 be
       -0.13240333 -0.03637238 -0.11917061 -0.13295041
0003e0 0e a6 4f bd 7c 24 5a 3b 41 f8 ca bc 4b c9 9b bc
       -0.05069547 0.0033285907 -0.02477658 -0.019016882
0003f0 78 93 04 bc 16 1d 4d bc 24 2f fa bc d3 b7 2f bd
       -0.0080918 -0.012519142 -0.030540057 -0.042899918

bias f4 [64]
000000 4e 8d 36 3e a4 91 66 3d 75 96 92 bd 88 d8 1b bc
       0.17827341 0.056291237 -0.07157604 -0.009512074
000010 4a d0 df bc 6a 53 c1 3d 94 a6 4a 3e 5b 17 37 be
       -0.027321 0.09439738 0.19790107 -0.17880003
000020 5a 71 83 3e 15 a6 6a 3d 28 c3 76 bd 8c 69 de be
       0.25672418 0.057287294 -0.06024471 -0.434399
000030 a7 19 a6 3e 92 05 2c 3d 5f a7 36 be 1b fb 05 bd
       0.32441446 0.0419975 -0.17837285 -0.032710176
000040 af 5b 27 3e bd 45 0d 3b 29 c8 42 bd 59 7f 7b 3e
       0.16343568 0.002155646 -0.04755417 0.24560298
000050 a6 ac 8d 3e c1 7c c3 3d 2f 67 10 be 18 c0 f3 bc
       0.27670783 0.09545279 -0.14101861 -0.029754683
000060 b0 9e 39 3e 3b 04 8b 3d bc 4d ef 3e 78 d3 86 bd
       0.1812694 0.06787916 0.46738994 -0.06583303
000070 bc cf 5f be d5 d1 22 3f 00 84 c2 3e ff b9 4f 3e
       -0.21856588 0.6360143 0.37991333 0.20285796
000080 71 b2 1b be 45 f4 ce bd f2 9b 47 bd af e0 d9 3e
       -0.15204789 -0.101051845 -0.048732705 0.42554232
000090 9d 58 40 be d3 f7 49 bf ac fd 7b be cb de 76 bd
       -0.18783803 -0.78893775 -0.24608487 -0.060271066
0000a0 c8 7b 6f 3d 97 6e fe 3d 2b 6f 98 be 63 71 5b 3e
       0.058467656 0.12423437 -0.29772314 0.21429972
0000b0 de c1 3e be d8 c8 4a be 96 f5 41 3e 82 0b ee 3e
       -0.18628642 -0.19803178 0.1894134 0.46493155
0000c0 d4 58 d7 3c 2d f5 16 3d 02 5f ac 3e 9e 7c a6 bd
       0.026287474 0.03685491 0.33666235 -0.081292376
0000d0 38 a8 94 3e 0f 9b 98 be 01 66 6d 3e 87 09 4b be
       0.2903459 -0.298058 0.23183443 -0.19827853
0000e0 f9 53 24 3f d1 7d bd 3e 0d 83 ce 3d cb 07 98 bd
       0.6419063 0.37010053 0.1008359 -0.074233614
0000f0 cb 3d 39 be 57 79 6a bd 4e b2 9c bd 4c 04 c1 bd
       -0.18089978 -0.057244625 -0.076511964 -0.09424648

weight f4 [20, 64]
000000 5b 05 18 bf ba 82 b3 3e 63 65 bb be df 49 09 3f
       -0.5938317 0.35060674 -0.3660079 0.53628343
000010 25 6c 2e 3e d6 3b 72 bd b9 d0 97 bd 6d d4 d3 be
       0.17033441 -0.059139095 -0.074128576 -0.41373006
000020 fe c4 87 be 55 f7 80 3e fa fa 7c 3d 8c 93 75 bd
       -0.2651748 0.251887 0.061762787 -0.059955165
000030 68 e2 1f bf 15 21 70 3e 3f b0 8c bd 64 a5 da 3e
       -0.62454844 0.2345012 -0.06869554 0.42704308
000040 8b fb af 3e ea 19 a4 3e c2 ab 7c 3e 87 e0 b1 3d
       0.343716 0.3205102 0.24674895 0.08685403
000050 f3 1a 4e be e2 d4 e1 be 5a f0 ba 3d b8 ed f8 3c
       -0.20127468 -0.4410773 0.09127875 0.03038679
000060 e7 92 ec be 70 bf 93 be c4 7c e0 be 48 25 bb 3e
       -0.46205828 -0.28856993 -0.4384519 0.3655188
000070 a4 fd e4 be 66 ff 95 3e 3b fb 43 3e 0c 63 aa 3d
       -0.44724762 0.29296416 0.19138806 0.08319673
000080 63 6a 0e 3e b6 81 bd be ed 14 7d 3d 0a 4f 29 3c
       0.13907771 -0.37013024 0.061787535 0.010333786
000090 d1 5d 01 3e 5d 86 a3 3e 3e 73 6e be 5d 57 c5 3e
       0.12633444 0.3193845 -0.23286149 0.38543215
0000a0 73 8f 4f 3e 07 4b f0 be bb 3b 7d be 87 b5 e8 3d
       0.20269565 -0.4693224 -0.24729817 0.113627486
0000b0 5e 86 f2 be 5e 94 9f 3e c4 8f 0b bf 4c 8a d1 be
       -0.4736814 0.31167883 -0.54516244 -0.40925825
0000c0 1c 2b ca 3d 8a f3 d9 bc 8e f0 53 bc 03 00 c4 3e
       0.09871504 -0.026605386 -0.012935771 0.3828126
0000d0 9e 20 9f 3e ec 92 2d 3e 30 fc b8 be 28 c7 8e be
       0.31079572 0.16950577 -0.36129904 -0.2788632
0000e0 d7 1e 66 be 89 d1 73 3e 17 2e e1 be f6 97 86 3e
       -0.22472702 0.238104 -0.43980476 0.26287812
0000f0 f8 97 03 be 0d d3 b0 3e b2 e7 ec bc bb ef af 3e
       -0.1285094 0.3453602 -0.028919075 0.34362587
000100 12 0e cb 3e bb 85 8e be 60 5f c1 be fe 9e 1d 3e
       0.39659172 -0.27836403 -0.37768078 0.15392682
000110 d8 f0 c7 3e 90 82 7f 3e 61 b4 91 3e 9c c1 1a 3f
       0.39050937 0.2495215 0.2845793 0.60451674
000120 96 22 05 be 7a 74 06 bf 09 55 0b 3e 9c 1d 25 be
       -0.13001475 -0.5252148 0.13606657 -0.16124576
000130 02 9a 9b 3e 0d 17 85 3e 1e 7b f5 bd ca dc bf 3e
       0.30390936 0.2599415 -0.11986373 0.37473136
000140 04 27 c7 be d7 2a b2 bd a4 26 bb be 1b bf 13 3f
       -0.38896954 -0.08699577 -0.36552918 0.5771348
000150 f9 08 ec 3d c1 73 a7 3e 8b fd 8f 3e 4a 79 28 3e
       0.11525149 0.327055 0.28123125 0.16452518
000160 6e b7 22 3e 9b 9a d1 3e 77 1b 93 3e 71 ff 8d bb
       0.15890285 0.40938267 0.28731892 -0.0043334295
000170 40 94 8d be 78 6f 8d 3d 62 17 bb be ff fc 9f be
       -0.27652168 0.069060266 -0.36541277 -0.31247708
000180 d1 ff 94 3c 71 33 50 3e dc bc b9 be 61 c4 bb be
       0.018188389 0.20332123 -0.362769 -0.36673263
000190 58 e1 73 3c 2e 3d 8f be be 6c 5f be 3f 64 d2 3d
       0.014885269 -0.27976364 -0.21818826 0.10273027
0001a0 b5 c4 e3 be 01 e6 86 3e 8e 12 ab be ec fa 50 be
       -0.44486013 0.26347354 -0.33412594 -0.20408219
0001b0 58 bf 88 3e 50 87 09 3d 9b c1 40 be 38 bb 2a be
       0.26708484 0.03357631 -0.18823855 -0.16672981
0001c0 be 7e 3b be 7e c2 b1 bd cf 38 62 3e bf 4a 06 be
       -0.18310067 -0.086796746 0.22091983 -0.13114451
0001d0 5f 70 12 be 94 3f e5 3e 31 b0 54 3e 37 05 37 3e
       -0.14300679 0.4477507 0.20770337 0.17873083
0001e0 a7 da c2 3e 4a 02 81 3e b9 18 d9 3e 80 d8 f4 be
       0.38057443 0.2519706 0.42401674 -0.47821426
0001f0 fc 1c e1 3e ec 11 9f 3e a0 b9 e9 3d 7d 1f 8c be
       0.43967426 0.3106836 0.11412358 -0.27367774
000200 3e 9f 1e bf 4d 09 38 3e 14 f7 aa 3c 4a de e8 3c
       -0.61961734 0.17972298 0.02086977 0.028426308
000210 0b 56 88 bd 89 24 1c bf 7e 65 83 bd 2b 81 a5 3e
       -0.066570364 -0.6099325 -0.064158425 0.3232511
000220 02 6b 85 3e ce ca 8f 3e 63 5b 9f be 3a 28 14 be
       0.26058203 0.28084415 -0.3112441 -0.1446847
000230 f0 ee ee bc 62 55 f5 be 0c 3d 40 be c5 d3 97 3d
       -0.029166669 -0.47916704 -0.18773288 0.07413439
000240 de 1c 08 bf 07 93 b2 3d 27 c1 b8 3e 70 4d e0 be
       -0.5316905 0.087194495 0.36084864 -0.4380908
000250 9d 4e bc 3e be e7 c3 be e3 fd 88 3e 01 94 d5 3e
       0.36778727 -0.38262743 0.267562 0.4171448
000260 5d 4f e7 3e 43 5a 71 3e 57 d1 c5 3d 65 7e 0a bf
       0.45177737 0.23569588 0.09659069 -0.5409911
000270 42 de 45 be 01 e1 bf bd a3 04 9d be a6 de 84 3e
       -0.19323066 -0.09369088 -0.306676 0.25951117
000280 a4 a6 eb bd 69 38 b9 be 3c 6b 97 3e 1e be cc 3d
       -0.115063936 -0.3617585 0.29574 0.099971995
000290 39 a2 63 3e 1e 79 e9 3e c2 7e bb be 28 aa ab bd
       0.22229852 0.45600218 -0.36620146 -0.08382064
0002a0 5d 3d e7 bd fa fd eb bd fc 64 b0 bd 5f de e4 3e
       -0.11291001 -0.115230516 -0.08613011 0.44700906
0002b0 7c 86 c2 be 3a f7 6c 3e f4 d8 83 bc f5 f4 b7 be
       -0.37993228 0.23141184 -0.016094662 -0.35929075
0002c0 2b ed 42 3e 9b ae 06 bf 36 b7 1f 3c 66 fa 6b be
       0.19035785 -0.52610177 0.009748271 -0.23044738
0002d0 77 57 f3 be 9c c3 a2 bc 0b b7 c6 3c b1 60 34 3e
       -0.47527668 -0.019868664 0.024257204 0.1761501
0002e0 f1 d2 0f be 2a f4 a7 be 31 70 b4 3e 92 b1 df 3d
       -0.14045312 -0.3280347 0.35241845 0.10922541
0002f0 bb 73 c3 3e c6 8f 8d 3e 94 22 76 be 63 97 c2 bc
       0.38174233 0.27648753 -0.24036628 -0.023753827
000300 c2 38 0b be 0b e1 a6 3e 7c 19 91 be 7f f0 f5 be
       -0.1359587 0.3259357 -0.28339756 -0.48035046
000310 1f 76 92 3e 26 f7 b5 bd 20 7b be be de 1b ef 3e
       0.28605744 -0.088850304 -0.37203312 0.46700948
000320 7a 91 bb 3d 21 32 4f be 33 46 18 bf ab 1f a3 be
       0.09158607 -0.20233966 -0.59482116 -0.31860098
000330 08 0e 32 bd 07 f9 1e 3e 01 7d 15 3d 37 b5 12 3e
       -0.043470412 0.15524684 0.036496166 0.1432694
000340 a5 9b a6 3e 91 f5 72 be 47 81 a0 3e 8d 0d c6 be
       0.32540622 -0.23726489 0.3134863 -0.38682213
000350 05 d1 62 3e da 96 18 bd b5 ea 01 3e 0c 00 8b 3c
       0.22150047 -0.03725324 0.1268719 0.016967796
000360 11 dd d6 bd c5 82 05 be e3 92 1b 3e b3 bd 96 be
       -0.10491384 -0.13038166 0.15192752 -0.29441604
000370 cd 86 56 be 22 c3 dd be 3a 6a 5c bc 36 15 33 bc
       -0.2094986 -0.43312937 -0.013453061 -0.01093035
000380 21 4b 5c 3e 3f ba e8 be eb a5 f9 be 62 9c d9 3d
       0.21513034 -0.45454594 -0.48759398 0.10625531
000390 22 00 bf 3e 6e 57 5e 3e 6a 86 9e 3e 3a 6a 9b be
       0.3730479 0.2171304 0.30961925 -0.30354482
0003a0 18 51 39 be 9b 26 32 be 1c 70 d3 3d 98 49 f7 3d
       -0.18097341 -0.1739754 0.103241175 0.12074584
0003b0 79 a0 9f 3d 2f 26 76 3d 51 4b 46 be 44 b6 c5 3e
       0.077942796 0.06009501 -0.19364668 0.3861562
0003c0 cf 39 8c bb b5 99 1d 3e 2b e9 02 bd 78 01 0c 3e
       -0.0042793523 0.15390666 -0.031960648 0.13672435
0003d0 a8 cc a2 3d 66 a4 40 bd 47 b5 92 3e 4a 34 bd be
       0.07949191 -0.047031783 0.2865393 -0.36953956
0003e0 df 6a 19 3e 33 46 e5 be f0 48 65 3e 14 30 32 bc
       0.14982174 -0.4478012 0.22391105 -0.0108757205
0003f0 5d 5d 4c bd 70 32 42 bd 72 e1 7b 3e e5 91 6c be
       -0.049893726 -0.047411382 0.2459772 -0.2310253

bias f4 [20]
000000 6f a8 73 be 50 de 16 3d bc 26 86 3d 2b cd 3b 3c
       -0.23794721 0.036833107 0.06550357 0.01146249
000010 7f 3d fc bd 99 18 27 3f 7b c3 92 be b5 d7 a3 3e
       -0.12316417 0.6527191 -0.28664765 0.3200051
000020 92 aa 09 bf ff 48 ab 3d a2 aa 88 be 24 59 cd bb
       -0.53775895 0.08363532 -0.26692683 -0.00626673
000030 04 f0 02 3e ce 3f 22 bd 64 fe 35 3e 42 42 1d 3f
       0.12786871 -0.03961163 0.17772824 0.61429226
000040 89 a7 ca 3b 09 ad 5b bc 6c 6f 06 bf d9 fe 65 be
       0.0061845225 -0.013407954 -0.52513766 -0.22460498
