project2-3 mnist/part2-mnist/mnist_model_fully_connected.pt (torch_old, 415190 bytes, 4 tensors)

weight f4 [128, 784]
00000000: 72dd f13c 3023 d8bb 8559 0fbd 3c59 283c
00000010: 4d72 073d fe56 fe3c e016 10bd d9ab 033d
00000020: b895 313c ffb2 06bd 7f70 0c3d 50a6 013b
00000030: 0056 a03b 0056 613c a98b 2f3c efda aebc
00000040: 8086 a73c 78f4 ce3c 4ed1 96bc 2461 8d3c
00000050: b017 d0bb 9ebc bdbc aef5 60bc c000 89bb
00000060: 45f0 a0bc 2e75 a43c de4d ac3c aaa7 8abc
00000070: f09e b5bc 00a0 d536 e019 003c d042 af3c
00000080: a86c 99bb 1368 bbbc 804a aeb8 ea08 de3c
00000090: 37ca 673c 9597 f83c 106c 3b3b 5f95 c2bc
000000a0: 7c56 d8bb e958 04bd 2fba 003d 363e 09ba
000000b0: 04e4 693c 8782 de3b 92dd 98bc 0994 383b
000000c0: e3fb 243c 7ac6 0ebd 1f22 c8bc abfb 0e3d
000000d0: 24b1 913c 50d0 8d3c e023 6cbc 88ab 09bd
000000e0: 7817 6ebc aa64 b5bc aec8 5fbc 3c25 103d
000000f0: 03d4 da3c 879e ca3c 1f8d f3bc fe6f 5e3c
00000100: 3582 abbc 0070 01bc c3a6 c53c 6270 debb
00000110: 541e 023d b5e6 4e3c 4be0 79bc 004b 47bc
00000120: 4a73 4e3c 059b 71bc aafa 29bd d733 7b3b
00000130: 3d19 503c e475 843c 78d7 bfba 49eb b83b
00000140: f1e7 193c 083a c7bc e89b f93b b2c9 1bbc
00000150: 481f a53b a04a 133c ac84 f4bc 737a 053d
00000160: 1bce 003d 2a2c 01bd 4ab2 10bc 4921 6c3c
00000170: ea00 2fbc 673d 9fbb e972 2bbd 64c0 fd3b
00000180: 5945 81bd 91b5 0ebc c5d0 7dbd 9acb 3abd
00000190: b6ae cbbd c071 b0bd 1275 c3bd 315d 29bc
000001a0: 6b67 81bd 540c 3cbd 7784 ac38 1fa5 03bc
000001b0: db10 88bb 7526 9fbc 0d85 98bc 5377 ddbc
000001c0: 860e 12bd 52b4 c4bc 7049 9c3c c68c e33b
000001d0: 92cc a9bc 407e d73c 6b28 3fba d513 0ebd
000001e0: 3728 3bbd a420 aebc 7a95 87bd 856c 95bd
000001f0: dfed f1bd c74f 1fbd e2ee a3bd ccda aebd
00000200: 8981 18bd 63f5 943b 7a10 993c 8005 0c3c
00000210: e029 8dbc 1ab9 c4bc 2722 0abd 8bd5 26bd
00000220: 6ef2 c9bc 93c7 9bbc dfd7 06ba 538b 023d
00000230: 90d5 223c 4118 f0bc 0dff 593c e458 acbb
00000240: 9ba5 c6bc d7f5 9d3c b782 cabc 76ce 54bd
00000250: 7cf4 763d 62d8 193d e0e6 b1bd 8142 07bd
00000260: 7213 e7bc 2a61 c0bc 0b59 663c a642 be3c
00000270: 7860 493d c3e6 cb39 b608 d3bc 6478 22bc
00000280: ec92 8abc ccbc 11bd 03ba 503d 8c46 a3bb
00000290: e453 ac3c a371 92bc e39d 093d fe92 bdbc
000002a0: 600b 0fbd f5f4 babc adf6 b13c 2b7e a03c
000002b0: 3cf7 833c 05f1 8a3c 9316 dabc 3509 62bc
000002c0: c245 893b 0d11 23bc 442d 83bc 52d9 453d
000002d0: 16f2 bf3d 2635 f93c 0640 dbbc 3542 0dbd
000002e0: 5b86 40bd 8765 843d 4c48 8e3b 052d 8a3c
000002f0: 75dd d4bc d839 af3d 3223 273d f581 b93b
00000300: c62f de3c 46a7 6abc 4fb1 66bb b70a aabb
00000310: 7a6e 963b e745 89bc 1ea3 003c 8a4b af3c
00000320: 659e c23c 4193 3c3c e75b 603c 7305 0bbc
00000330: ef5c 8e3c 2ba8 8e3c ff56 12bd 66e5 bdbd
00000340: 1ace a23b 1688 a2bb 83e2 8abd 1093 8bbd
00000350: c96e eaba ba16 22bc 28a2 ee3d 8b24 b53d
00000360: 48fe 8c3d dd04 153e 9ea1 f93d 3d69 673d
00000370: f393 00bd d765 823c ccee e5bc 8a4f 7dbc
00000380: be0f 6fbc 809d 28bc cb0b d63c 3e31 a13c
00000390: 90e7 df3d 6151 c53d 4e4f 663d cec8 dd3d
000003a0: 65bd b53d d984 3c3d 56d6 963c faf9 0cbc
000003b0: 3e8d e73c b977 9d3d 669a 213d 7425 cf3b
000003c0: 62dc cebb bcf7 e33c 989e 153d 5e00 ef3d
000003d0: 797d e93d 7dcb cb3c 0a68 bb3d 6fde c73d
000003e0: fa9b f7bc 0d41 1ebd af2c de3b 51e2 9ebc
000003f0: 86a3 29bc 05d7 44bc aea3 903c 2e1c bd3c
0.029524539 -0.0065959916 -0.03499748 0.010275181 0.03306799 0.03104734 -0.035178065 0.03214631
0.010838918 -0.032885548 0.034286972 0.0019782968 0.0048930645 0.013753414 0.01071445 -0.02134463
0.020449877 0.025263056 -0.018410351 0.017258234 -0.00635048 -0.023161229 -0.01373045 -0.0041809976
-0.01964582 0.020075407 0.021033224 -0.016925652 -0.022170514 6.366521e-06 0.007818669 0.021394163
-0.0046821423 -0.022876775 -8.310843e-05 0.02710386 0.014147333 0.030345717 0.0028598346 -0.023752866
-0.0066021066 -0.032311354 0.03142756 -0.00052354054 0.014275555 0.0067904624 -0.01866034 0.0028164408
0.01006982 -0.03485725 -0.024430333 0.034907978 0.017784663 0.017311245 -0.01441285 -0.03361085
-0.014531963 -0.022142727 -0.013658686 0.03519176 0.026712423 0.024733795 -0.029730378 0.013576506
-0.020936111 -0.007900238 0.02412737 -0.0067882994 0.031767204 0.012628247 -0.0152512295 -0.0121638775
0.012600729 -0.014746432 -0.041498818 0.003833046 0.01270133 0.016169496 -0.0014636358 0.0056432826
0.009393678 -0.024319664 0.0076174624 -0.009508537 0.0050391294 0.00898996 -0.02984842 0.03258748
0.031446557 -0.03153626 -0.00883157 0.014412233 -0.01068137 -0.0048596147 -0.041857634 0.007743882
-0.06312055 -0.008710281 -0.061966676 -0.045604326 -0.09945433 -0.08615446 -0.09543814 -0.01033716
-0.063185535 -0.045910195 8.2262726e-05 -0.008034973 -0.0041524 -0.019427517 -0.018618131 -0.027034437
-0.035658382 -0.024011765 0.019077986 0.0069442717 -0.02072743 0.026305318 -0.00072920945 -0.034686882
-0.04569265 -0.021255799 -0.06620307 -0.07296089 -0.118129484 -0.03889444 -0.08004548 -0.08537826
-0.03723291 0.004545854 0.018684614 0.008546233 -0.017231882 -0.024014045 -0.033723976 -0.040730994
-0.024651732 -0.019016063 -0.00051438616 0.03187115 0.009938613 -0.02930844 0.013305438 -0.00525962
-0.024248889 0.019282265 -0.024720533 -0.05195471 0.060291752 0.037559874 -0.08686614 -0.033022407
-0.028207514 -0.023483831 0.014059315 0.02322514 0.049164265 0.00038891108 -0.02576099 -0.009916399
-0.016915761 -0.03558044 0.050958645 -0.004982775 0.021036096 -0.017876452 0.033597838 -0.02314138
-0.034922957 -0.022821883 0.02172407 0.019591412 0.016109101 0.01696063 -0.026622092 -0.01379614
0.004189224 -0.009952796 -0.016012795 0.048302956 0.09372346 0.030420851 -0.026763927 -0.034486968
-0.04700313 0.06464677 0.0043421146 0.01686717 -0.025984505 0.08555955 0.04080505 0.005661244
0.02712239 -0.014322108 -0.00352009 -0.0051892656 0.0045908066 -0.016756965 0.00785139 0.021398325
0.023757169 0.011509717 0.013693786 -0.008485186 0.017378299 0.017414173 -0.035727497 -0.0927227
0.004968417 -0.0049600704 -0.06781485 -0.06815159 -0.00178858 -0.009893114 0.116520226 0.08844861
0.06884438 0.14552636 0.12189029 0.056496847 -0.031391095 0.015917702 -0.028067969 -0.015460858
-0.014591156 -0.010291457 0.02612867 0.0196768 0.10932839 0.096346624 0.056227975 0.10829316
0.08874015 0.04602513 0.01841275 -0.008604521 0.028265592 0.07688851 0.039453886 0.0063216034
-0.006312893 0.02782809 0.0365282 0.11669992 0.11400885 0.024877304 0.09150703 0.09759223
-0.030225743 -0.038636256 0.006780229 -0.019395025 -0.010353928 -0.012014155 0.017656174 0.023084726

bias f4 [128]
00000000: f81e dfbd f82d a1bc d8e8 523d 0f0f 4f3c
00000010: c140 833d ca3a d9bb ebe9 10b9 c129 f1bd
00000020: 52b9 f53d 2d41 2d3d dc71 edbd 6495 9c3d
00000030: 8be5 703d eb6c a13d b3b2 66bb 32c8 f43d
00000040: abf4 b43d 3301 ab3d c7f8 40bc 3664 883d
00000050: 6fb4 d8bc 6d73 17be 1be0 8dbd 3377 d93d
00000060: 8eb7 793d 479a e6bc 10b5 333d 0d49 07bd
00000070: 69c4 0dbe 3b47 84bd b2bc c53d f76e 21be
00000080: 525c 0e3e 9bf4 2d3e 9d19 123d 31c3 fa3d
00000090: ac9f 723c f9fb 803d 50ab ec3c 65c6 dcbc
000000a0: 277b 77bd c0e1 0a3d b3ef e0bc 1527 b1bd
000000b0: 5c1a 67bb edae 073d 8405 7bbd 1c31 7cbc
000000c0: b9af 7f3d 3aa3 4ebc 4a27 ab3e 7c59 5b3e
000000d0: fee2 1cbd 5c32 45bd 6d56 aa3c 5bab 3c3d
000000e0: 8091 f8bb 995f 683c 91ac d83d e8d3 c239
000000f0: 6807 b6bd 762e c0bd 97e6 2b3d df28 f13c
00000100: 05d4 1d3e f712 d53d 52b9 ec3d ce2c 713e
00000110: 2016 b03d 7e9d 673d dcdf 403e 1579 11be
00000120: b3f3 223e e476 333e 64d5 0d3e 7823 763c
00000130: 7067 a73d a150 d13d 758e 5f3d fb8a a53d
00000140: 6803 453d 5443 5e3e 5235 db3d b777 2c3d
00000150: 4769 233d a7a8 33bd 78ee 0e3e de25 ee3c
00000160: 09ca 733d 0e3a 07bd ce7f 7a3c 5e90 a43d
00000170: 7105 83bd 12d2 79bd 4f17 b03c 6867 f73d
00000180: cd79 02bc ae82 8dbd b10a 043d 36d0 38be
00000190: 9b2c 883d 899b 833d 0306 fa3d a693 64bb
000001a0: 1e2e e03d b1cc 3ebd 7168 663d dbef e0bc
000001b0: 92ce 193d e432 883b fa9f 253e af5a c3bd
000001c0: 1aa2 1f3e 2dcc 26bd 5956 b03c 5366 383c
000001d0: 8be8 5cbd 0660 093e 7e86 8b3e 2b22 c63d
000001e0: 1e39 febb 22f6 163d 5087 293e 7477 3bbd
000001f0: ca93 733d 086a 9e3d eb65 063d bd8b 3f3d
-0.10894579 -0.01967524 0.05149159 0.012637868 0.06408835 -0.0066293227 -0.00013820051 -0.11775542
0.11998238 0.042298485 -0.115939826 0.076456815 0.05881266 0.078821026 -0.0035201728 0.11952247
0.08835729 0.08349838 -0.011778063 0.06659739 -0.026453225 -0.14790125 -0.0692751 0.106184386
0.060966067 -0.028149737 0.043873847 -0.03302865 -0.13844456 -0.06458899 0.096551314 -0.15764986
0.13902405 0.16987841 0.035668958 0.12244261 0.014808577 0.0629806 0.028890282 -0.02695007
-0.06042018 0.0339067 -0.027458047 -0.086500324 -0.0035263514 0.033125807 -0.061284557 -0.015392568
0.06242344 -0.012612158 0.33428413 0.21420854 -0.038302414 -0.04814373 0.020793164 0.046061855
-0.0075857043 0.0141829485 0.105797894 0.00037160446 -0.088881314 -0.09383862 0.041967954 0.029438434
0.1541291 0.10404008 0.115587845 0.23552248 0.0859797 0.05654668 0.18835396 -0.14206345
0.15913276 0.17525822 0.13850933 0.015023105 0.08174026 0.10220457 0.054579217 0.08083149
0.04809895 0.21705371 0.107035294 0.042106356 0.039895322 -0.04386201 0.13958156 0.02907079
0.059518848 -0.03301435 0.01528926 0.08035348 -0.06397522 -0.060991354 0.02149549 0.1208027
-0.00796361 -0.06909691 0.03223676 -0.18048176 0.06649133 0.0642615 0.12208178 -0.0034878044
0.10946296 -0.046581928 0.056251947 -0.027458122 0.037550516 0.0041564573 0.16174307 -0.09538781
0.1558918 -0.04072206 0.021525549 0.011254865 -0.053932708 0.13415536 0.27251047 0.09674486
-0.0077582737 0.036855824 0.16555524 -0.045768216 0.059467115 0.077350676 0.03281204 0.046764124

weight f4 [10, 128]
00000000: 5620 0dbf 9c7a 89bd 1356 af3e 5b06 b53d
00000010: 7f54 0d3f e15d 593c 72e4 27be 77de a93e
00000020: 1cb5 a2bd f3ed 0cbe 82be c2be d88f 00bf
00000030: 2de4 013f dd51 823c 3fd5 ac3d d111 6bbe
00000040: 441e acbd 04c9 83be 3454 a2bd 7bf9 fdbd
00000050: b89f 743e 4874 693e 4b66 31be c492 0a3e
00000060: cd0c d5be 8884 d5be 43ad 333d eb50 2f3c
00000070: 4f3f 1ebf b0ec 0a3e e1c0 133f 498e d33e
00000080: 1957 f73e 7cb1 c03c 8b0c 963e ee0d bebe
00000090: b580 703e 6b3f 863e d4dd c93d ce43 2dbd
000000a0: 099f 003d f102 d7bd b3b4 dcbe a6e5 86be
000000b0: 3a2a 0fbf 48b1 f53d 97f6 343e 47e5 993e
000000c0: 2b98 54bd 98d7 d33e 1fd5 02be c032 62be
000000d0: 47f0 e73e a671 c93e 561b b53e 08b5 343e
000000e0: 47c2 083e dc04 753d bab8 afbe 897c 40bd
000000f0: df64 893e 4f96 a8be 379e ba3c 0d7a f23d
00000100: 92b1 5a3d 5756 583e 9a6d 3e3e 7526 e7be
00000110: a546 753e 144a 6abe 8f55 a03d 3852 0ebe
00000120: ff44 8cbe b48d 243f 979e ffbc b0bb 40be
00000130: 6af2 953e 6598 df3c 3428 7fbe 0945 05bf
00000140: 9967 3bbf e1ea 0e3f 9510 dfbe 8724 afbe
00000150: 5322 e7bd 4faf 00be b210 ae3e 66b3 97bd
00000160: 26a7 5ebe d4ea d43e 3eee 8b3e 298f c03e
00000170: bbbf bc3e 91b1 84be 0295 6bbd 18c7 8ebe
00000180: 574a e33d 6f6b e7bd 765b 953d 8f2a 293e
00000190: 1d18 7bbd 2e40 98be 336b a93d 88df a438
000001a0: 007d b6be a77f 3ebe 85bb 59bd 3220 f1be
000001b0: 7950 cfbe 651c 0fbf 5b54 b2be 69a0 33bd
000001c0: 5845 9fbe 8eef a13d b75f bcbe 0b4f 0cbd
000001d0: ae4a 9ebe 201b 6ebe c0d4 0dbd 59d1 a9be
000001e0: 5cda 2abd af47 ea3b b84b f2be 6f6c 923d
000001f0: 42af 55be fbbc 5abe ff7d 7f3e 0168 e7bc
00000200: d9f2 c83e eb56 d2be 47e0 973e 9f4e b8be
00000210: c986 8abe f063 063f 0991 8b3d a3d3 4fbe
00000220: 1887 853d 5dab c0be cc85 843e 6d41 d13e
00000230: 98cd d8be f247 16be 69da 203e 780a 99be
00000240: 391b ca3e bd14 9abe 95ce f13c 8b70 153e
00000250: 940e 7ebe f74a 6b3e f00d 5e3e a2cb acbc
00000260: 3feb 833e 7e4a 78be 5b70 cbbd 8aca e63e
00000270: ad58 973e 1463 64bd acd6 edbe eb67 51bd
00000280: 16c7 9dbe 0902 723f f59b 1ebf fb86 853e
00000290: 4c8c c3be f918 77be 1748 fabe b4c5 4bbe
000002a0: c3e5 d23d 3c69 4c3f bd21 e73c e70f 563e
000002b0: f7f9 fe3e 5149 5dbd 9758 7fbe 1da8 2dbe
000002c0: 2c8a 9c3e 1c4f 993b e219 123f 8b03 71be
000002d0: 529e 91be f64b 933e 2b32 b03d 1908 403e
000002e0: 7539 aebc 0893 61bc 6cf7 d2be 73ca 383d
000002f0: 84af 64be 4b6c 4dbd 33f1 943d b332 8fbc
00000300: bf51 a83e 2c2a a4be 136c 9c3c 75dc 06bf
00000310: d150 bcbe 6d95 8b3e 9d30 07be 854c 74be
00000320: 3ba3 81be e09d 98be dcc5 46be d592 773e
00000330: 574d 90bd 714e 12be 97e9 b8bb de26 a5be
00000340: 99d9 153f 5140 633e a486 c63d 153d 853e
00000350: fbb0 78bd f4a3 7bbd 9024 ddbd c7ec 803e
00000360: 3892 383f 1a67 ebbe ea61 3cbe dad9 14be
00000370: 1c39 8a3e 8208 a73e 7cff 62bd f4d5 5f3e
00000380: 8a79 dbbe 71af f2bc 233f a5bd 08ec 14bf
00000390: 546e c53d e8d4 073e 1679 20bd 0435 4f3e
000003a0: d80f 653e 90c1 f13e 9ded 3cbe e34b 353f
000003b0: 7e37 d2be c505 41be 8b12 7a3d ead9 1fbe
000003c0: 241c dbbd aea8 90be f882 8ebc b87e 13bd
000003d0: 8376 5cbc 593a 07bf 70a6 73bd 1845 d93e
000003e0: ae04 d5bd fba7 d5be 17b8 f43e 5d0d a23c
000003f0: 99fe f6bc 0cb6 dbbd 5930 9cbe 6d47 1d3d
-0.55127466 -0.06712839 0.34245357 0.08839103 0.55207056 0.013267011 -0.16395739 0.3317754
-0.079447 -0.13762645 -0.3803597 -0.5021949 0.50738794 0.015908176 0.08439111 -0.22956015
-0.0840421 -0.257393 -0.07926217 -0.124011 0.23889053 0.22798264 -0.17324178 0.13532549
-0.4161133 -0.41702676 0.043866407 0.010700445 -0.6181535 0.13566852 0.57716185 0.41319492
0.48308638 0.023522131 0.29306445 -0.37120003 0.23486598 0.2622026 0.098567635 -0.04230099
0.031401668 -0.10498608 -0.43106613 -0.26347083 -0.5592381 0.11996704 0.17672192 0.30057737
-0.05190293 0.41375422 -0.12776612 -0.22089672 0.45300505 0.3934452 0.35372418 0.17647183
0.13355361 0.059819087 -0.34320623 -0.046993766 0.2683477 -0.32927176 0.02278052 0.118396856
0.053392 0.21126686 0.18596497 -0.45146528 0.2395273 -0.22879821 0.07828819 -0.13898551
-0.2739639 0.6427872 -0.031203551 -0.18821597 0.2928651 0.027294347 -0.2491768 -0.52058464
-0.7320495 0.55827147 -0.4356734 -0.34207556 -0.11285844 -0.12566875 0.33997113 -0.074072644
-0.2174345 0.4158541 0.27330202 0.37609223 0.3686503 -0.25916722 -0.05751515 -0.2788627
0.110981636 -0.11299788 0.072928354 0.16520141 -0.061302293 -0.29736465 0.082724 7.861765e-05
-0.35642242 -0.18603383 -0.05315735 -0.47094876 -0.40491083 -0.559027 -0.34829983 -0.04385415
-0.31107593 0.079070196 -0.36791775 -0.03425507 -0.3091635 -0.23252535 -0.034626722 -0.33167532
-0.04171215 0.0071496586 -0.47323394 0.07149588 -0.20867637 -0.21361153 0.24950407 -0.028247835
0.39247778 -0.41081938 0.29663298 -0.35997483 -0.27055958 0.5249624 0.06814773 -0.20295577
0.06519908 -0.3763074 0.2588333 0.40870228 -0.42344356 -0.14675882 0.15708317 -0.298908
0.39473894 -0.30093947 0.029517451 0.14593713 -0.24810249 0.22977816 0.21685004 -0.021093193
0.25765416 -0.24247167 -0.099335395 0.450764 0.29559842 -0.05575855 -0.46452844 -0.051124495
-0.30815953 0.94534355 -0.6195672 0.26079544 -0.38192976 -0.2413062 -0.48883125 -0.19899637
0.1029773 0.79848075 0.02821433 0.20904504 0.49800083 -0.054024998 -0.24936138 -0.16958661
0.30574167 0.00467862 0.57070744 -0.23536508 -0.284411 0.2876889 0.08603319 0.18753089
-0.021267632 -0.013767965 -0.41204393 0.045114946 -0.22332579 -0.050152104 0.072725676 -0.01748023
0.32874867 -0.32063425 0.019094503 -0.5268014 -0.36780408 0.2726244 -0.13202138 -0.23857315
-0.25319847 -0.2980795 -0.19411415 0.24177106 -0.070460014 -0.14287736 -0.0056430805 -0.32256216
0.5853515 0.22192504 0.096936494 0.26023164 -0.060715657 -0.061435655 -0.10797989 0.25180647
0.7209811 -0.45977098 -0.18396726 -0.14536229 0.26996696 0.32623678 -0.05541943 0.2185896
-0.42866164 -0.029624673 -0.08068683 -0.58172655 0.09640184 0.13264811 -0.039177977 0.20235068
0.22369325 0.4721799 -0.18450017 0.7081892 -0.41057962 -0.18849857 0.06105284 -0.15610471
-0.10698727 -0.28253692 -0.017396435 -0.03600952 -0.01345599 -0.52823406 -0.0594849 0.42435527
-0.10401283 -0.4172972 0.477967 0.019781763 -0.030150698 -0.10728082 -0.30505636 0.038398195

bias f4 [10]
00000000: 831a 95be 08df 6a3e b444 bebd 1087 26be
00000010: 0dc9 163e 2a5d 863e 011a a8bd acd2 283d
00000020: 5b2f 2e3e e542 3fbc
-0.2912179 0.22936642 -0.09290448 -0.1626246 0.14725132 0.26242954 -0.08208085 0.041216537
0.17010252 -0.011673664
