mnist/part2-mnist/mnist_model_fully_connected.pt (torch_old, 921601 bytes, 8 tensors)

weight f4 [32, 1, 3, 3]
0.2868163 -0.031280216 -0.8190275 0.20858979 0.94015515 0.19169562 -0.67286676 0.28467396
0.05046012 -0.5465128 0.26784882 0.19343068 -0.33425343 0.14747363 0.37199306 -0.38717508
0.23147672 0.44029498 -0.19924696 -0.09366944 -0.18916571 -0.41169062 -0.32300577 -0.021733835
-0.3105695 0.29035234 0.39673415 -0.1803946 -0.3472059 0.01050757 0.028198963 0.14452365
0.10299247 -0.2954221 0.019333508 0.36719415 0.18860084 0.45355332 -0.0697032 0.01166621
-0.0972536 -0.5662161 0.40826505 -0.04668213 0.05240795 0.042671304 -0.4716745 -0.24574275
0.28910923 -0.6080087 -0.5218178 0.77099067 0.597225 0.25718942 -0.19202529 -0.6848598
-0.42789924 -0.43544397 0.041059047 0.64875126 0.59570324 0.53532094 -0.24916135 0.1487646
-0.40324295 -0.1807763 0.33279204 -0.21709564 0.07469006 0.31878546 -0.03982909 0.09546493
0.4322957 -0.38547075 -0.746559 0.29771292 0.33244064 -0.036237173 -0.029553149 0.32032007
0.19653061 -0.22244614 0.16169864 -0.3072245 0.20953284 0.06381994 -0.6202469 0.47899354
0.511856 -0.48156896 -0.06614769 0.12880814 -0.060410593 -0.057495512 -0.2260542 0.22559358
-0.31277022 0.26251715 -0.05127936 -0.014470647 -0.40662497 -0.23028035 -0.5240932 -0.11275731
-0.34214085 -0.37691554 -0.15255809 -0.04050293 -0.1073583 -0.19644621 -0.089283794 -0.22497682
-0.3599209 -0.2939988 0.32296318 0.10399199 -0.31292072 0.2448191 -0.091879174 -0.5072336
-0.17322926 -0.1419471 -0.26931596 0.42807493 0.15823579 0.52599686 -0.30503118 -0.28419724
0.097970285 0.56178 0.5433913 0.4404764 -0.2741577 -0.3303316 -0.5350553 -0.44624826
-0.6118843 -0.45321745 -0.12379756 0.15718338 0.2332179 -0.029322099 0.41773343 0.22475883
-0.56832194 0.23601933 0.50843686 -0.7578644 0.26707426 0.3979231 -0.47039494 0.14115724
0.02602833 -0.787363 0.48129535 0.5363257 -0.06635196 1.0281658 -0.39278755 0.58676594
0.37409356 -0.84928286 0.8589655 0.44012707 0.5652218 -0.19343157 0.3555419 -0.10639519
-0.81376326 -1.0451304 -0.24247271 0.120458126 0.019631134 -0.009716854 -0.21733561 -0.15309997
-0.31910712 -0.26892698 -0.26118425 0.15949206 0.63903546 0.6554141 -0.29581 0.42646244
-0.53261983 -0.644016 -0.16656706 -0.38859287 -0.001020735 0.27664912 0.03875514 -0.41954347
0.4282637 -0.2559165 -0.23154801 0.14617804 0.088061966 -0.2063353 0.041610852 -0.018599255
-0.182852 -0.1955434 0.22098528 -0.20916511 -0.14631909 0.10168461 -0.017455224 -0.3303943
0.3081876 -0.053670075 -0.44728398 0.27696025 0.19774722 -0.49009216 0.29367524 0.044466157
-0.17416452 0.38003373 0.15354057 -0.09360097 0.031837467 0.50100327 -0.5847825 -0.41581115
-0.08295905 -0.1871137 0.19538347 -0.31230322 0.23924315 0.34882337 -0.094750956 -0.116163425
0.07386317 0.10415523 -0.28703076 -0.13770051 -0.25073776 0.3914763 -0.22610822 -0.43267938
-0.072365545 0.4302344 0.55595666 0.3623158 0.05280686 -0.23906028 -0.0022665274 0.14203043
-0.23118538 -0.35346445 -0.09292388 -0.24428324 -0.4777455 -0.5428091 0.07131365 -0.42682073
00000000: 96d9 923e af1f 00bd c9ab 51bf 9098 553e
00000010: 02ae 703f db4b 443e ff40 2cbf c9c0 913e
00000020: 45af 4e3d 43e8 0bbf 7b23 893e b112 463e
00000030: 4423 abbe 5403 173e e075 be3e d03b c6be
00000040: 3c08 6d3e 586e e13e 6507 4cbe c3d5 bfbd
00000050: a8b4 41be 1dc9 d2be 0361 a5be 280b b2bc
00000060: f702 9fbe 10a9 943e bd20 cb3e 5db9 38be
00000070: f9c4 b1be f127 2c3c 8301 e73c 02fe 133e
00000080: b7ed d23d 9141 97be 4e61 9e3c df00 bc3e
00000090: 9420 413e 2438 e83e 8dc0 8ebd a223 3f3c
000000a0: e52c c7bd 8af3 10bf 1e08 d13e c335 3fbd
000000b0: b8a9 563d 1bc8 2e3d 527f f1be fda3 7bbe
000000c0: 2006 943e 75a6 1bbf da95 05bf a55f 453f
000000d0: bde3 183f 55ae 833e 47a2 44be f952 2fbf
000000e0: 9c15 dbbe 83f2 debe 882d 283d 9014 263f
000000f0: 0280 183f cb0a 093f 2724 7fbe bf55 183e
00000100: dc75 cebe 6c1d 39be b863 aa3e 524e 5ebe
00000110: 1af7 983d d937 a33e d423 23bd 1e83 c33d
00000120: dd55 dd3e 6c5c c5be 7e1e 3fbf d46d 983e
00000130: a935 aa3e 6e6d 14bd 7219 f2bc fe00 a43e
00000140: 523f 493e ecc8 63be 5494 253e 884c 9dbe
00000150: c78f 563e 07b4 823d 80c8 1ebf a43e f53e
00000160: ff08 033f 3590 f6be 7178 87bd 48e6 033e
00000170: 1971 77bd 6a80 6bbd c17a 67be 0102 673e
00000180: 6b23 a0be a668 863e 4e0a 52bd 4b16 6dbc
00000190: 2631 d0be 9dce 6bbe f92a 06bf 4eed e6bd
000001a0: 162d afbe 13fb c0be 3038 1cbe 66e6 25bd
000001b0: abde dbbd 3229 49be 6cda b6bd 5360 66be
000001c0: 8d47 b8be 0387 96be 6e5b a53e c1f9 d43d
000001d0: 2537 a0be dcb1 7a3e 262b bcbd 10da 01bf
000001e0: 0363 31be 955a 11be c8e3 89be a32c db3e
000001f0: 9008 223e bba7 063f 0c2d 9cbe 4d82 91be
00000200: a5a4 c83d d0d0 0f3f b11b 0b3f 1f86 e13e
00000210: 665e 8cbe 3921 a9be 62f9 08bf a77a e4be
00000220: 73a4 1cbf 1e0c e8be 9389 fdbd aef4 203e
00000230: acd0 6e3e e634 f0bc 28e1 d53e 2e27 663e
00000240: 8c7d 11bf 0daf 713e eb28 023f 6703 42bf
00000250: f5bd 883e 94bc cb3e 9bd7 f0be 868b 103e
00000260: 5d39 d53c 9f90 49bf 586c f63e a44c 093f
00000270: 89e3 87bd f09a 833f 731b c9be 4b36 163f
00000280: 3189 bf3e 9a6a 59bf 2ae5 5b3f 5658 e13e
00000290: 60b2 103f ed12 46be 9709 b63e b9e5 d9bd
000002a0: ca52 50bf d5c6 85bf c44a 78be c0b2 f63d
000002b0: 79d1 a03c 7133 1fbc 3a8d 5ebe 3dc6 1cbe
000002c0: 0262 a3be ccb0 89be f1b9 85be e351 233e
000002d0: d497 233f 38c9 273f 6974 97be 4959 da3e
000002e0: c659 08bf 3cde 24bf 8e90 2abe a5f5 c6be
000002f0: 2fca 85ba f4a4 8d3e b6bd 1e3d 67ce d6be
00000300: 6145 db3e 7d07 83be ec1a 6dbe b2af 153e
00000310: d559 b43d 9049 53be 2470 2a3d 775d 98bc
00000320: 8e3d 3bbe 873c 48be f749 623e 612f 56be
00000330: acd4 15be 0540 d03d 42fe 8ebc 7129 a9be
00000340: c4ca 9d3e 27d5 5bbd 6802 e5be bccd 8d3e
00000350: 3f7e 4a3e 5ced fabe 9a5c 963e 2522 363d
00000360: 2f58 32be c893 c23e bd39 1d3e deb1 bfbd
00000370: 0168 023d c041 003f 4eb4 15bf 33e5 d4be
00000380: 6fe6 a9bd bc9a 3fbe 9b12 483e 35e6 9fbe
00000390: 28fc 743e fa98 b23e ca0c c2bd 17e7 edbd
000003a0: 9345 973d 564f d53d b2f5 92be 5d01 0dbe
000003b0: b360 80be 956f c83e ea88 67be 2788 ddbe
000003c0: 6334 94bd af47 dc3e 2d53 0e3f 7581 b93e
000003d0: 024c 583d 38cc 74be 058a 14bb 6d70 113e
000003e0: dcbb 6cbe 4bf9 b4be e04e bebd 6325 7abe
000003f0: 0f9b f4be 8af5 0abf e40c 923d 3f88 dabe

bias f4 [32]
-0.27042148 -0.17343538 0.18029512 -0.1196002 -0.18894106 -0.14735149 -0.08746842 -0.10678497
-0.30505913 -0.011410058 -0.3113984 0.4878624 0.266479 -0.09479039 0.0062018405 0.049493637
-0.05516798 -0.68929225 -0.10100012 -0.14031176 -0.0027813253 -0.041391365 -0.05522728 0.025429245
-0.046043683 -0.14247636 -0.023972506 -0.034236964 -0.2691102 -0.24457781 -0.19721569 0.046282835
00000000: af74 8abe 0b99 31be 499f 383e f3f0 f4bd
00000010: c479 41be 4fe3 16be a522 b3bd 14b2 dabd
00000020: b630 9cbe 40f1 3abc 9c6f 9fbe 1ac9 f93e
00000030: ef6f 883e 7721 c2bd cf38 cb3b d7b9 4a3d
00000040: d2f7 61bd 7575 30bf 27d9 cebd e3ad 0fbe
00000050: e546 36bb fe89 29bd 0036 62bd fe50 d03c
00000060: 4d98 3cbd 53e5 11be fd61 c4bc 0f3c 0cbd
00000070: d0c8 89be 9b72 7abe e9f2 49be 1293 3d3d

weight f4 [64, 32, 3, 3]
-0.07328785 0.071191356 0.016792076 0.005112822 -0.09271306 -0.08398472 0.008570669 0.13251399
0.012413813 -0.083285466 0.0077932915 0.1521043 -0.0661497 -0.04134455 -0.020991338 0.029417219
0.04082543 -0.020209111 0.020700956 -0.07615607 -0.07320798 0.0040134015 -0.044144448 0.011837835
-0.09531844 -0.034560293 -0.035896856 0.037008334 -0.023203598 0.0043743295 0.061184607 -0.06815136
0.012769086 -0.013711442 -0.026335994 0.059498288 -0.042360496 -0.067871906 0.0005245691 -0.050171252
0.0406311 -0.038906965 -0.01795431 -0.01684406 -0.0002702307 0.016416196 -0.10494209 -0.10196648
0.11299431 0.21442366 0.08261921 0.0024626788 0.022349807 0.048241314 -0.050009824 -0.05615674
-0.051937368 0.028803475 -0.0076286327 -0.050708156 0.001850077 0.040542457 0.023437759 -0.072288975
-0.01064106 0.016744003 -0.01714517 0.07327727 0.045253288 0.044387642 0.021204486 0.0312736
-0.039491832 -0.041840706 -0.025734888 -0.06207897 0.016302206 0.0083729485 0.028435236 0.06778112
-0.0022723458 -0.07567346 -0.06307088 -0.03085324 0.04393025 0.06309641 -0.06398456 -0.008041593
0.03302708 0.06865731 0.018236065 0.04011137 -0.037927296 -0.007769354 -0.040739924 -0.056791395
-0.003382916 -0.036826096 0.022573583 0.015555231 -0.10548076 -0.111294255 -0.067024805 -0.010299438
-0.11594857 -0.016939225 -0.09334869 -0.09132809 0.048276953 -0.054524865 -0.108852446 -0.050519906
-0.03231201 -0.011176159 -0.01964089 -0.005272316 -0.083068475 -0.05290403 -0.108617395 -0.0666394
0.055368587 0.042118847 0.007567824 -0.03592373 -0.0038370432 0.029884525 0.044536367 0.006273844
0.045660164 -0.066881135 -0.06904347 -0.0010013317 0.06413462 -0.014419111 -0.08399485 -0.065507896
-0.081985384 -0.016078148 0.04328639 -0.033873014 -0.1108605 -0.030161941 0.0067399684 0.070114516
0.001235782 0.0694708 0.06589207 -0.037781194 -0.08526681 0.015556063 -0.017479159 -0.053159256
-0.027168434 -0.077422366 -0.058632568 0.092165664 -0.034662105 -0.10456466 -0.14503655 -0.014001899
-0.043042194 0.06518379 0.02113476 0.05170714 0.10898998 -0.095411204 0.060925506 0.06497167
-0.08311124 0.04436663 -0.04317282 0.037741333 0.05320405 -0.024599234 -0.0441816 -0.019444978
-0.05278856 0.044148352 0.010895226 0.026429432 -0.15183547 -0.055091277 -0.026297169 -0.0910303
-0.05280301 -0.013037965 -0.08613356 -0.11018128 -0.11602645 -0.103976995 -0.00042501691 -0.038391437
0.017981863 0.010826493 -0.024723489 -0.0275947 0.030188812 -0.04488094 0.040084377 0.014147005
0.021161603 0.0109211765 0.054710124 0.01999665 -0.026140548 0.04510667 -0.014007007 -0.010873107
-0.023709342 0.009750593 -0.044326585 -0.031073067 -0.0003454826 -0.075053364 -0.009956684 -0.018746307
-0.022161784 0.037701927 0.075076684 -0.033711053 0.0035185495 0.088501684 0.053586863 0.0301095
-0.055243917 -0.09879648 0.02081837 0.06544461 0.039244805 -0.03993715 -0.01563606 0.057750683
-0.012995174 0.046163213 -0.07585585 -0.09700869 -0.03083398 0.12639675 0.016193522 0.007838626
0.0031764389 0.092426986 0.046327498 -0.0048021367 0.0046849903 -0.030566521 -0.015276211 -0.019830484
0.020524891 0.019987134 0.031954523 -0.05598504 -0.031955745 -0.07899872 0.050450835 0.050794754
00000000: f117 96bd c6cc 913d 898f 893c 7689 a73b
00000010: 58e0 bdbd 2e00 acbd fe6b 0c3c bfb1 073e
00000020: 4e63 4b3c 9291 aabd de5e ff3b 3bc1 1b3e
00000030: 7e79 87bd e758 29bd 07f6 abbc 61fc f03c
00000040: 9138 273d 948d a5bc 0d95 a93c b7f7 9bbd
00000050: 11ee 95bd da82 833b cfd0 34bd 7bf3 413c
00000060: 5036 c3bd 188f 0dbd 9508 13bd 0d96 173d
00000070: 7915 bebc 8956 8f3b b69c 7a3d f192 8bbd
00000080: 6e35 513c f5a5 60bc 95be d7bc 7ab4 733d
00000090: 3382 2dbd 6d00 8bbd 3d83 093a 5f80 4dbd
000000a0: cc6c 263d e95c 1fbd eb14 93bc 8efc 89bc
000000b0: c0ad 8db9 427b 863c e1eb d6bd cdd3 d0bd
000000c0: 9069 e73d e091 5b3e 4334 a93d e564 213b
000000d0: f116 b73c af98 453d 1ad7 4cbd 9c04 66bd
000000e0: 47bc 54bd 44f5 eb3c 9cf9 f9bb 5bb3 4fbd
000000f0: 487e f23a d90f 263d 8b00 c03c 3e0c 94bd
00000100: d757 2ebc b82a 893c 0774 8cbc 6512 963d
00000110: 835b 393d d1cf 353d 08b5 ad3c bf18 003d
00000120: 30c2 21bd 2961 2bbd f9d1 d2bc 8546 7ebd
00000130: 348c 853c b12e 093c 03f1 e83c d4d0 8a3d
00000140: a3eb 14bb b0fa 9abd 4e2b 81bd efbf fcbc
00000150: 35f0 333d b138 813d 560a 83bd e3c0 03bc
00000160: 6747 073d 349c 8c3d cd63 953c d24b 243d
00000170: a759 1bbd 1196 febb e8de 26bd 189e 68bd
00000180: eab3 5dbb f6d6 16bd 3cec b83c 5edb 7e3c
00000190: 4c06 d8bd 3eee e3bd 4d44 89bd f9be 28bc
000001a0: 7276 edbd 21c4 8abc 992d bfbd 390a bbbd
000001b0: 0ebe 453d 7755 5fbd 08ee debd f6ed 4ebd
000001c0: 9959 04bd 351c 37bc efe5 a0bc 64c3 acbb
000001d0: ce1f aabd e5b1 58bd cc72 debd 3d7a 88bd
000001e0: 2cca 623d d084 2c3d 82fb f73b c324 13bd
000001f0: e776 7bbb 64d0 f43c c46b 363d d194 cd3b
00000200: 2706 3b3d faf8 88bd aa66 8dbd 1e3f 83ba
00000210: 0359 833d 233e 6cbc 7e05 acbd 0129 86bd
00000220: f4e7 a7bd 52b6 83bc 124d 313d 6ebe 0abd
00000230: d40a e3bd 2d16 f7bc f4da dc3b 3398 8f3d
00000240: f7f9 a13a b546 8e3d 6cf2 863d 74c0 1abd
00000250: 5ea0 aebd dbde 7e3c 7430 8fbc 85bd 59bd
00000260: 5690 debc 9e8f 9ebd b428 70bd 5ac1 bc3d
00000270: daf9 0dbd ff25 d6bd 7684 14be 3968 65bc
00000280: 034d 30bd 147f 853d ce22 ad3c deca 533d
00000290: 2336 df3d f366 c3bd 068d 793d de0f 853d
000002a0: 3a36 aabd c9b9 353d fcd5 30bd a896 1a3d
000002b0: 7dec 593d 5584 c9bc c4f7 34bd 134b 9fbc
000002c0: d138 58bd e7d4 343d e481 323c 8982 d83c
000002d0: c27a 1bbe 64a7 61bd 296d d7bc 186e babd
000002e0: f847 58bd 309d 55bc cb66 b0bd b9a6 e1bd
000002f0: 479f edbd e4f1 d4bd ced4 deb9 5740 1dbd
00000300: b34e 933c 9a61 313c ea88 cabc 480e e2bc
00000310: 874e f73c 14d5 37bd 842f 243d d7c8 673c
00000320: 195b ad3c bcee 323c b917 603d 04d0 a33c
00000330: b424 d6bc c6c1 383d a57d 65bc 1e25 32bc
00000340: 183a c2bc f4c0 1f3c cb8f 35bd f28c febc
00000350: e421 b5b9 94b5 99bd 5c21 23bc db91 99bc
00000360: a18c b5bc 566d 1a3d cec1 993d 9a14 0abd
00000370: 7797 663b 5f40 b53d e67d 5b3d 33a8 f63c
00000380: 7247 62bd cf55 cabd 498b aa3c d307 863d
00000390: 29bf 203d 2395 23bd 3217 80bc fb8b 6c3d
000003a0: b6e9 54bc a315 3d3d 505a 9bbd 7eac c6bd
000003b0: 8b97 fcbc 266e 013e 47a8 843c 956d 003c
000003c0: cd2b 503b 5c4a bd3d e7c1 3d3d 3e5b 9dbb
000003d0: 8c84 993b a466 fabc 1349 7abc 8a73 a2bc
000003e0: d123 a83c 0fbc a33c bfe2 023d 9250 65bd
000003f0: 07e4 02bd 15ca a1bd 89a5 4e3d 290e 503d

bias f4 [64]
-0.048300236 0.0017123433 0.014201275 -0.033711366 -0.064421184 -0.013318754 -0.11947262 -0.21792924
-0.07421543 -0.229482 -0.058263227 -0.03945313 -0.02489096 -0.0856881 -0.09264356 -0.06777775
-0.12455679 -0.039081745 -0.09016427 -0.060711037 -0.071097314 -0.03766221 0.016052347 -0.04032221
-0.09170472 -0.04184963 -0.094320506 -0.060871698 -0.15327035 -0.018104415 -0.012432607 -0.11884339
-0.11612295 -0.25753766 -0.04200767 -0.037003234 -0.08993928 -0.017004706 -0.037111625 -0.042249087
-0.014015315 -0.06965894 -0.21948148 -0.04245761 -0.049797215 -0.07080808 0.047521785 -0.0047953925
-0.015257068 -0.13903068 -0.028998597 0.02162031 -0.07438693 -0.18146703 -0.08872149 -0.02360796
-0.04693577 -0.20809126 -0.022375152 -0.05254759 -0.029308561 -0.17923471 -0.054004278 -0.040710002
00000000: 78d6 45bd b570 e03a 77ac 683c ee14 0abd
00000010: 41ef 83bd e736 5abc 10ae f4bd d828 5fbe
00000020: 42fe 97bd 54fd 6abe 6ca5 6ebd 9b99 21bd
00000030: 20e8 cbbc 3e7d afbd e8bb bdbd 10cf 8abd
00000040: a117 ffbd 2e14 20bd 0ba8 b8bd 23ac 78bd
00000050: 789b 91bd b143 1abd 3680 833c e728 25bd
00000060: afcf bbbd 856a 2bbd 1c2b c1bd 9a54 79bd
00000070: e7f2 1cbe b64f 94bc 22b2 4bbc 2a64 f3bd
00000080: dfd1 edbd fadb 83be 3c10 2cbd b490 17bd
00000090: 1632 b8bd 744d 8bbc 5c02 18bd 610d 2dbd
000000a0: 7ea0 65bc 59a9 8ebd c1bf 60be 08e8 2dbd
000000b0: 2af8 4bbd d403 91bd 34a6 423d ab22 9dbb
000000c0: c8f8 79bc 0f5e 0ebe 778e edbc 141d b13c
000000d0: 2d58 98bd 7ed2 39be 9db3 b5bd 7b65 c1bc
000000e0: b93f 40bd e015 55be 184c b7bc 243c 57bd
000000f0: 8218 f0bc 4e89 37be 9733 5dbd 88bf 26bd

weight f4 [128, 1600]
-0.023579849 0.0070654103 0.060998928 0.02353489 0.038163844 0.007438984 -0.023034774 -0.020598449
0.0007244293 0.017856553 -0.01839282 -0.020042695 0.00037268296 0.025652843 0.03022215 0.0056795715
0.047064688 0.03856689 0.010115298 0.023819149 -0.0065656626 -0.00021998846 0.021393035 -0.002026826
0.0051588044 -0.016283428 0.0011950029 0.0037820176 0.018338738 -0.024132254 -0.021501996 -0.006973671
0.009388603 0.03174291 -0.003554355 -0.010096918 -0.026906546 0.03260947 0.037710447 0.03421631
-0.03141696 -0.0050234543 0.014982046 -0.010774471 0.0035835018 0.011869727 -0.0068615135 0.0511061
0.011003352 -0.032294866 -0.006410077 -0.0016314478 0.028181572 -0.016855976 -0.0082603805 -0.0179807
-0.009090416 0.022777734 -0.0006196511 -0.0035853605 -0.015988573 -0.0029154872 0.0046640984 0.012320623
-0.020540047 -0.015364009 0.003583866 -0.01658089 0.02222329 -0.014215836 0.017683886 -0.02292562
0.0024233123 0.011445318 -0.016807538 -0.015969466 -0.02572019 -0.03161673 -0.07788165 -0.00035945413
0.02754837 -0.0070067933 0.009363632 -0.056510773 -0.0009315217 0.008426793 0.03741659 0.05560026
0.02881109 -0.0022496053 0.0053408537 -0.057403192 0.01042064 0.023458831 0.0061170226 0.023827571
-0.03916502 -0.011160054 -0.028647434 0.017910745 0.022581032 0.03362467 0.064799525 0.0563837
0.010875137 -0.025470795 -0.007706467 0.04996336 0.0397166 -0.0050166547 0.0007826485 -0.023741689
-0.032832153 0.011689834 -0.0037780793 -0.01669281 0.00051573507 -0.0054592923 0.014507388 -0.005108841
0.018267974 0.0885203 0.030395964 0.0017612734 -0.039311662 -0.007869685 -0.0020715438 0.03604636
0.021343524 -0.022685878 -0.029807417 0.010718912 0.033183847 -0.0015581645 -0.00071759726 -0.027558124
0.012974426 0.07558659 0.034750544 0.030946951 -0.03284396 0.030432882 0.007258843 -0.006847314
-0.0067572505 -0.0057896976 0.034139693 -0.045117214 0.0059894496 -0.027213288 -0.016000953 -0.0022823666
-0.028559148 0.0144982785 0.018378789 0.019323241 0.00722991 0.043102235 -0.0038405901 0.0031201246
-0.0071225637 0.040238682 0.009228949 0.015197652 -0.007469875 -0.013940751 -0.0254534 -0.008528932
-0.04250296 -0.00677985 0.0038294042 -0.023735067 0.00042791478 0.010979521 -0.011683293 0.0009326496
0.019009436 0.051451422 0.114479885 0.0012935672 0.0037207755 0.05112403 0.04458297 0.0222159
0.0015975925 0.0031823823 -0.029927822 -0.013676988 -0.03306156 -0.0005968196 -0.025479648 -0.005328011
-0.01947165 -0.0091133 0.03726759 -0.0039813425 0.003950104 -0.059039764 0.01383144 -0.01122939
0.0091395965 -0.02705287 0.028074337 0.010768858 0.015806513 -0.000408763 0.015069481 -0.03784873
-0.034115523 -0.019757975 -0.0068200007 -0.020613018 0.014088894 -0.0013733655 0.025883319 0.007381095
0.037748564 0.057871096 0.025847424 -0.028820934 0.022298153 0.046645954 0.027016424 0.0063475533
-0.018403823 -0.032371182 0.05470046 0.048305526 0.082914464 0.02556319 -0.028030531 0.016389765
-0.051884174 0.046619326 0.05199045 -0.017295953 -0.06952119 -0.032674972 0.0387864 -0.018082215
0.013107741 -0.026095364 0.048903223 0.002810846 -0.0833185 0.010268183 -0.0031050812 -0.04002929
-0.033692934 -0.03342886 -0.013293695 -0.012916484 -0.039945032 -0.012968277 0.0062379832 0.010645006
00000000: 872a c1bc f584 e73b 03da 793d 3ecc c03c
00000010: b151 1c3d b8c2 f33b 6cb3 bcbc 14be a8bc
00000020: a1e7 3d3a e847 923c 8aac 96bc 9430 a4bc
00000030: a964 c339 e925 d23c 7194 f73c b31b ba3b
00000040: e7c6 403d 51f8 1d3d a3ba 253c 6020 c33c
00000050: c524 d7bb b4ac 66b9 7240 af3c 7fd4 04bb
00000060: 300b a93b d364 85bc a5a1 9c3a badb 773b
00000070: 1f3b 963c 01b1 c5bc f424 b0bc 6483 e4bb
00000080: a8d2 193c db04 023d 2ef0 68bb 8b6d 25bc
00000090: 1e6b dcbc 8291 053d 4576 1a3d 6726 0c3d
000000a0: 12af 00bd ca9b a4bb 4177 753c 6887 30bc
000000b0: 2fd9 6a3b 3e79 423c 8cd6 e0bb a154 513d
000000c0: 6747 343c 9f47 04bd a00b d2bb 4ed6 d5ba
000000d0: 0add e63c 8b15 8abc 8c56 07bc 434c 93bc
000000e0: f8ef 14bc 5f98 ba3c 1570 22ba 5ef8 6abb
000000f0: 78fa 82bc c211 3fbb 4bd5 983b 70dc 493c
00000100: 9a43 a8bc 53b9 7bbc 4bdf 6a3b a6d4 87bc
00000110: 9e0d b63c 8ae9 68bc ccdd 903c 83ce bbbc
00000120: 6fd0 1e3b 2585 3b3c f6af 89bc 66d2 82bc
00000130: 26b3 d2bc 8b80 01bd 6a80 9fbd 1e75 bcb9
00000140: 1fad e13c 3e99 e5bb eb69 193c d777 67bd
00000150: 5d31 74ba 8810 0a3c 2342 193d 19bd 633d
00000160: 3c05 ec3c 1d6e 13bb 5402 af3b 9c1f 6bbd
00000170: 55bb 2a3c bc2c c03c 4e71 c83b 0a32 c33c
00000180: 806b 20bd a9d8 36bc 06ae eabc 8eb9 923c
00000190: dbfb b83c 06ba 093d 9db5 843d 98f2 663d
000001a0: a12d 323c 21a8 d0bc 8886 fcbb 61a6 4c3d
000001b0: e0ad 223d c062 a4bb a72a 4d3a ee7d c2bc
000001c0: 027b 06bd b886 3f3c a799 77bb 5cbf 88bc
000001d0: 6532 073a dde3 b2bb 65b0 6d3c 1168 a7bb
000001e0: b8a6 953c 224a b53d f500 f93c 87da e63a
000001f0: 4405 21bd daef 00bc bdc2 07bb 59a5 133d
00000200: 9dd8 ae3c bcd7 b9bc af2e f4bc 609e 2f3c
00000210: c9eb 073d 533b ccba 231d 3cba 93c1 e1bc
00000220: b092 543c 24cd 9a3d 9656 0e3d 7684 fd3c
00000230: 6387 06bd 614e f93c 97db ed3b 6f5f e0bb
00000240: ed6b ddbb 81b7 bdbb 10d6 0b3d d4cc 38bd
00000250: 2543 c43b 67ee debc 6e14 83bc c293 15bb
00000260: e0f4 e9bc 308a 6d3c 1d8f 963c c64b 9e3c
00000270: e2e8 ec3b f88b 303d 69b2 7bbb 017b 4c3b
00000280: 6564 e9bb 51d1 243d 0535 173c 93ff 783c
00000290: dac5 f4bb bf67 64bc a683 d0bc efbc 0bbc
000002a0: 9517 2ebd 8129 debb bef6 7a3b 0b70 c2bc
000002b0: c059 e039 73e3 333c 486b 3fbc 0e7d 743a
000002c0: adb9 9b3c babe 523d 6e74 ea3d ea8c a93a
000002d0: 41d8 733b 6e67 513d a29c 363d 1efe b53c
000002e0: 4f66 d13a 848f 503b 312b f5bc 7215 60bc
000002f0: 8f6b 07bd e373 1cba b2ba d0bc 9896 aebb
00000300: 0283 9fbc f34f 15bc e7a5 183d ec75 82bb
00000310: e06f 813b aed3 71bd 449d 623c 7afb 37bc
00000320: 3fbe 153c fb9d ddbc 27fc e53c dd6f 303c
00000330: a97c 813c 3e4f d6b9 fce5 763c 4507 1bbd
00000340: b8bc 0bbd 7adb a1bc 507a dfbb a2dc a8bc
00000350: 1bd5 663c 8002 b4ba 4109 d43c 1ddd f13b
00000360: 3d9e 1a3d 3e0a 6d3d fabd d33c e119 ecbc
00000370: 9eaa b63c d40f 3f3d 8c51 dd3c 23ff cf3b
00000380: 9dc3 96bc a597 04bd 970d 603d 04dc 453d
00000390: 0fcf a93d e569 d13c 49a0 e5bc d443 863c
000003a0: 8084 54bd e8f3 3e3d f0f3 543d 3eb0 8dbc
000003b0: 2061 8ebd 31d6 05bd 7dde 1e3d 2721 94bc
000003c0: dac1 563c f2c5 d5bc bf4e 483d 2c36 383b
000003d0: e4a2 aabd e23b 283c 9e7e 4bbb c1f5 23bd
000003e0: 9a01 0abd b3ec 08bd cccd 59bc a99f 53bc
000003f0: 679d 23bd e578 54bc ff67 cc3b 6468 2e3c

bias f4 [128]
-0.052061576 0.029008381 -0.022528129 -0.014753829 -0.023886338 -0.04956304 0.013329352 -0.05033765
0.015014135 0.068998806 -0.015967172 0.007550066 0.031767417 0.014151927 -0.041894227 -0.07198306
-0.07134804 -0.0025984272 -0.07814869 -0.021966923 -0.020289762 0.039511297 0.013261667 -0.05252736
-0.008896312 0.011214833 0.030226829 0.019465772 -0.062678 0.053383972 0.019352427 0.06611222
-0.008999696 -0.051275417 -0.04351424 -0.06309177 0.046204783 0.037113283 0.056682896 0.02751136
0.029393997 -0.039303973 0.011470388 0.07736646 0.016652394 -0.009179482 0.005687021 0.02941202
0.056885958 0.025855131 -0.0057671997 -0.026157407 -0.06733924 0.03919754 0.07055978 0.01040152
6.912366e-05 -0.04950848 0.0038784381 0.0273146 0.085852675 0.001530779 0.016907927 -0.012886642
-0.027683398 -0.05599334 -0.016189426 -0.005269589 -0.05405658 0.039296925 0.05002117 -0.046123482
-0.08272286 0.03473906 -0.027426422 -0.057105266 0.04715994 -0.023950025 -0.050428163 0.03654622
0.037906233 -0.038018104 0.02943814 0.032112423 0.028251218 0.024558662 0.02834616 0.035593014
-0.0021439863 -0.008980516 0.05300484 0.034579005 -0.026246604 -0.040373165 0.02052281 -0.0050807847
0.026339887 0.036630206 0.016371543 0.02869176 -0.05443327 -0.06033357 -0.0071111065 0.06596448
0.004530454 0.02117103 -0.0028452568 0.050842978 -0.026535995 0.040992454 0.03411567 0.02565665
0.03491737 -0.020347953 0.0073693777 0.038471676 -0.07400162 0.02987698 -0.0021735814 -0.037643615
-0.042572007 0.04884179 0.0011116248 -0.045080006 -0.060482685 0.0011886692 -0.008530715 0.022319658
00000000: 853e 55bd fca2 ed3c e98c b8bc 0bba 71bc
00000010: 48ad c3bc 9d02 4bbd 5b63 5a3c da2e 4ebd
00000020: d9fd 753c 3f4f 8d3d 96cd 82bc 8b66 f73b
00000030: 8d1e 023d 7cdd 673c 4899 2bbd db6b 93bd
00000040: ec1e 92bd 604a 2abb 6c0c a0bd faf3 b3bc
00000050: b736 a6bc 99d6 213d 7747 593c ee26 57bd
00000060: d6c1 11bc 6bbe 373c 419e f73c af76 9f3c
00000070: 535d 80bd 27a9 5a3d fb88 9e3c d865 873d
00000080: 7673 13bc 2c06 52bd fd3b 32bd 4236 81bd
00000090: 3a41 3d3d 1904 183d 532c 683d 815f e13c
000000a0: aecb f03c 34fd 20bd 4bee 3b3c 4e72 9e3d
000000b0: 9a6a 883c 8a65 16bc 315a ba3b 7af1 f03c
000000c0: 4001 693d 24ce d33c c7fa bcbb 0f48 d6bc
000000d0: 28e9 89bd 9a8d 203d a581 903d 236b 2a3c
000000e0: 7bf6 9038 67c9 4abd 652d 7e3b dec2 df3c
000000f0: 87d3 af3d 6ba4 c83a 7e82 8a3c 7e22 53bc
00000100: 4bc8 e2bc 4659 65bd b09f 84bc 84ac acbb
00000110: 6f6a 5dbd d0f5 203d 00e3 4c3d faeb 3cbd
00000120: 9a6a a9bd 8b4a 0e3d 60ad e0bc 36e7 69bd
00000130: c82a 413d d832 c4bc c38d 4ebd 7db1 153d
00000140: 9143 1b3d dfb8 1bbd 4128 f13c 5188 033d
00000150: 196f e73c 3f2f c93c 3536 e83c fbc9 113d
00000160: 1f82 0cbb 0423 13bc 9a1b 593d b7a2 0d3d
00000170: 1e03 d7bc 555e 25bd 741f a83c b67c a6bb
00000180: bfc6 d73c 8e09 163d 9d1d 863c fb0a eb3c
00000190: 6cf5 5ebd 5520 77bd 4904 e9bb 6318 873d
000001a0: 3474 943b de6e ad3c 7d77 3abb ba40 503d
000001b0: 0462 d9bc b4e7 273d dfbc 0b3d e52d d23c
000001c0: 8405 0f3d c0b0 a6bc d27a f13b 7a94 1d3d
000001d0: 298e 97bd 92c0 f43c a572 0ebb 3130 1abd
000001e0: fc5f 2ebd 540e 483d f0b3 913a d0a5 38bd
000001f0: b1bc 77bd 1fcd 9b3a 69c4 0bbc b7d7 b63c

weight f4 [10, 128]
0.17506336 -0.28306767 -0.11016436 -0.21479341 -0.23782508 -0.25437924 -0.09705808 -0.46905982
-0.19371851 0.11858421 -0.22901788 -0.14715025 -0.18568806 -0.15522519 0.17394535 -0.24946056
-0.12940961 0.06608249 -0.15206861 -0.16921817 -0.2327479 0.07498751 0.10984289 -0.07990825
0.3058145 -0.2844476 -0.21864091 -0.27170154 -0.18926445 -0.005100937 -0.006704247 -0.07950832
-0.22594203 0.1949726 -0.08138619 -0.1998831 0.11740259 -0.14417033 -0.12799776 -0.20815793
-0.14553888 0.22114931 -0.006400021 -0.056953985 0.13051188 0.16576383 0.12105781 -0.32323897
-0.17149405 -0.07410077 -0.077802666 -0.13425133 -0.22759543 0.29276913 0.32335496 -0.17926392
-0.22626281 -0.19189723 0.26774642 -0.3228654 0.15198243 -0.27836022 -0.18406925 -0.20151731
-0.24504925 -0.040128667 0.00514393 -0.19398399 -0.21943043 -0.011585776 -0.24107075 0.12671657
0.12026197 0.06112393 -0.14101988 0.04128517 0.07523682 -0.12992662 0.1767967 -0.17190306
0.22541423 -0.3246821 -0.09950934 -0.23432887 0.30365852 -0.08691376 0.071854964 0.056587372
0.27082455 -0.16838484 0.18296796 0.03716634 -0.30710658 -0.1843809 0.26441064 0.18375179
0.18392265 0.15947662 -0.19658946 -0.043779694 -0.22977234 -0.18036085 0.22863504 0.22041835
0.100523084 0.15918605 -0.10718149 -0.15371026 -0.21155052 -0.17110349 -0.30028045 -0.18198597
0.058971398 0.13923372 -0.04852898 -0.07009994 -0.2100067 0.08641875 0.14477105 -0.21899137
-0.116064854 0.1937359 0.23018967 0.15838604 0.15488482 0.062726565 -0.29070553 0.065912835
-0.21243209 0.12670873 0.009659494 -0.21998069 0.21679263 -0.12123824 0.14172067 -0.052498374
0.31691065 0.20170218 -0.054748468 0.15270585 0.2082588 0.1659769 -0.21478724 -0.14971437
-0.21311285 0.061844848 -0.15626332 0.24068701 0.058895133 0.043653756 -0.032981582 -0.18098879
-0.08340263 0.2129925 0.154327 0.20750695 -0.13134746 0.1814832 -0.056400828 0.34009412
0.18772502 -0.22305813 -0.22242062 -0.2856695 0.10463629 0.18940161 0.30473322 0.24377272
0.2304884 -0.12916923 0.13021584 0.24316819 -0.04740785 -0.26551452 -0.1342363 0.23224005
0.36100048 0.21433325 0.065959625 -0.20272264 -0.2934274 0.09399345 0.22526704 0.12153057
0.32712165 -0.25412536 -0.17113544 0.14112629 0.2589494 0.190863 0.2432457 -0.011665443
0.041290205 -0.14440578 0.12040193 0.088781044 0.016577981 0.25024024 0.22798075 -0.21819188
-0.32288215 0.16488834 0.016313473 -0.29768422 0.15876299 -0.15807448 -0.2977385 0.19528921
0.33843803 0.03562467 0.09415772 0.20134242 -0.0887427 0.10047142 0.19044234 -0.069049075
-0.16628441 0.3093946 0.16207197 0.0385839 -0.21473639 -0.15268971 0.03324882 -0.32884893
-0.2263889 0.23329 0.36306858 0.22227839 -0.27582994 -0.013410573 -0.13548742 0.008384414
0.011488622 0.02430883 -0.07609247 0.21068014 0.17270774 0.25185674 0.24526803 0.116954856
0.29450333 -0.12739903 0.08870334 0.18467629 -0.21712227 0.06867069 0.11424476 -0.19450857
-0.17932802 0.19217432 -0.19821791 -0.12759936 -0.19832571 0.13171194 0.14292447 0.050678745
00000000: cf43 333e 3fee 90be da9d e1bd cef2 5bbe
00000010: 6b88 73be ff3d 82be 63c6 c6bd 9c28 f0be
00000020: 255e 46be 47dc f23d aa83 6abe 8eae 16be
00000030: 0325 3ebe 5af3 1ebe bb1e 323e 9772 7fbe
00000040: f483 04be 4256 873d e0b7 1bbe 8747 2dbe
00000050: 7755 6ebe 0d93 993d 4ff5 e03d f0a6 a3bd
00000060: b893 9c3e 1ea3 91be 67e3 5fbe 771c 8bbe
00000070: 8ace 41be c325 a7bb 4daf dbbb 42d5 a2bd
00000080: 595d 67be e6a6 473e cead a6bd 28ae 4cbe
00000090: c570 f03d 63a1 13be d811 03be 5a27 55be
000000a0: 2508 15be f774 623e 44b7 d1bb 9548 69bd
000000b0: e8a4 053e febd 293e 28ed f73d 947f a5be
000000c0: 239c 2fbe 25c2 97bd 0157 9fbd 2e79 09be
000000d0: c70e 69be d6e5 953e c88e a53e f690 37be
000000e0: 70b1 67be b580 44be 0f16 893e 9d4e a5be
000000f0: 48a1 1b3e 3b85 8ebe a67c 3cbe 8e5a 4ebe
00000100: 31ee 7abe f55d 24bd 6a8e a83b bda3 46be
00000110: 5fb2 60be 44d2 3dbc 40db 76be fdc1 013e
00000120: e84b f63d 165d 7a3d 8467 10be a31a 293d
00000130: c315 9a3d 7c0b 05be 320a 353e 5b07 30be
00000140: fdd2 663e bb3c a6be 8ecb cbbd e8f3 6fbe
00000150: 2179 9b3e d7ff b1bd b228 933d 29c8 673d
00000160: 84a9 8a3e 136d 2cbe f45b 3b3e bb3b 183d
00000170: 133d 9dbe 59ce 3cbe d560 873e 6e29 3c3e
00000180: 3856 3c3e d74d 233e bf4e 49be 5652 33bd
00000190: 7149 6bbe 84b0 38be 4e1f 6a3e 59b5 613e
000001a0: 0cdf cd3d ab01 233e f881 dbbd 3966 1dbe
000001b0: b3a0 58be c135 2fbe 5cbe 99be 885a 3abe
000001c0: fe8b 713d 4993 0e3e 53c6 46bd 8f90 8fbd
000001d0: ff0b 57be 50fc b03d dd3e 143e 463f 60be
000001e0: 69b3 edbd b462 463e d7b6 6b3e f32f 223e
000001f0: 209a 1e3e c976 803d 5bd7 94be 4ffd 863d
00000200: cc87 59be efbf 013e db42 1e3c 9e42 61be
00000210: e3fe 5d3e c14b f8bd 391f 113e 8908 57bd
00000220: 1d42 a23e 048b 4e3e ee3f 60bd ec5e 1c3e
00000230: cb41 553e d9f5 293e 30f1 5bbe b94e 19be
00000240: 413a 5abe 0651 7d3d 7e03 20be a876 763e
00000250: 063c 713d 48ce 323d b217 07bd 2055 39be
00000260: 00cf aabd b51a 5a3e e607 1e3e b47c 543e
00000270: f37f 06be bbd6 393e 8e04 67bd d120 ae3e
00000280: fd3a 403e 5a69 64be 3bc2 63be 4643 92be
00000290: 8d4b d63d 7ff2 413e fe05 9c3e 8e9f 793e
000002a0: 2705 6c3e f044 04be 4d57 053e 1501 793e
000002b0: bc2e 42bd 85f1 87be 3e75 09be 56d0 6d3e
000002c0: 0ed5 b83e 2d7a 5b3e d715 873d 8696 4fbe
000002d0: 1e3c 96be a37f c03d 67ac 663e 05e5 f83d
000002e0: 7d7c a73e b81c 82be 213e 2fbe 6983 103e
000002f0: 0495 843e 9771 433e 6715 793e 6a20 3fbc
00000300: eb1f 293d 1cdf 13be 4995 f63d d6d2 b53d
00000310: 8cce 873c 7d1f 803e c973 693e b16d 5fbe
00000320: cf50 a5be 7dd8 283e d5a3 853c 116a 98be
00000330: c492 223e 47de 21be 2e71 98be e5f9 473e
00000340: c047 ad3e 2deb 113d c3d5 c03d b52c 4e3e
00000350: bcbe b5bd f6c3 cd3d 5103 433e 9a69 8dbd
00000360: 7646 2abe f868 9e3e 32f6 253e 270a 1e3d
00000370: dbe3 5bbe b15a 1cbe ea2f 083d e35e a8be
00000380: 7ed2 67be 93e3 6e3e 20e4 b93e f29c 633e
00000390: 9539 8dbe 05b8 5bbc 37bd 0abe c85e 093c
000003a0: c63a 3c3c 5023 c73c 5ed6 9bbd 89bc 573e
000003b0: 4cda 303e 5ef3 803e 8b27 7b3e 0786 ef3d
000003c0: 24c9 963e e474 02be 19aa b53d c81b 3d3e
000003d0: 4d55 5ebe 38a3 8c3d 28f9 e93d 412d 47be
000003e0: c4a1 37be 58c9 443e a3f9 4abe 68a9 02be
000003f0: e515 4bbe 7fdf 063e cb5a 123e 8494 4f3d

bias f4 [10]
-0.044732276 0.20018627 0.031346556 -0.08456548 -0.1295436 -0.03639175 -0.20561476 0.011126731
0.15010168 0.017309092
00000000: 3139 37bd a1fd 4c3e 3f65 003d ab30 adbd
00000010: 14a7 04be 840f 15bd ad8c 52be e44c 363c
00000020: 41b4 193e cccb 8d3c
